workflow/financial-robot-app/financial_robot_app/models/dbgpt-hub-nlu-v0.1/pytorch_model.bin (torch, 529984 bytes, 4 tensors)

fc1.weight f4 [128, 1024]
-0.03306219 0.011186499 -0.021349153 0.17753436 0.111613385 0.07159409 0.056478743 0.006723608
-0.018064834 0.085828565 0.062865764 -0.078502186 -0.09386807 -0.11333984 -0.089262895 0.14276433
-0.07997267 -0.05847583 0.032402497 0.115295075 0.01907784 -0.093948066 0.016496187 -0.10086683
0.009739336 -0.1159744 -0.031638697 -0.087945774 -0.11402842 0.0922469 -0.103869736 -0.040072117
0.09539721 0.08117169 -0.037158933 0.08879576 -0.040884934 -0.124484226 0.008947428 -0.06488205
0.05835447 0.019430738 0.062594056 -0.07993412 -0.11793315 -0.11551532 0.105608225 0.10190924
0.15235032 0.0853714 0.10003659 -0.09796692 0.072487645 0.046630763 -0.09547918 -0.08295087
-0.01703571 -0.096066855 0.05269257 0.052962735 0.028064478 0.014390681 0.11308654 0.036824383
-0.034228638 0.11498795 0.06654914 -0.043123428 0.10038777 0.11144485 0.01357738 0.06444501
0.10519592 0.14933886 -0.017464163 0.08032028 0.12834907 0.018293649 0.007889764 -0.01453047
-0.079902135 -0.009077157 -0.123531826 -0.057596575 0.07263688 0.14660507 0.08029022 0.0609738
-0.059380658 -0.1353312 0.109513484 0.04289196 -0.040506035 0.12540932 0.018556558 0.100929774
0.042099185 0.11885543 -0.12841718 -0.13478966 -0.1516705 0.01174981 -0.029373815 0.020927956
-0.09014208 -0.057219036 -0.06376084 -0.05835667 -0.04498395 -0.021872187 -0.044081546 0.03320682
-0.037406556 -0.01792783 0.14913547 0.0821921 -0.08420518 0.089916855 -0.12981778 -0.13187069
0.013197729 0.017640775 -0.049218737 0.07955562 0.11223193 -0.074449025 -0.1748917 0.09565377
-0.15022895 -0.07099665 0.010464174 0.010888016 -0.11846883 -0.11055897 0.1573296 0.10034446
0.07965664 0.031070389 -0.13396072 0.08550505 0.11168005 0.06480117 0.078627616 -0.10105881
-0.09323057 -0.13622658 -0.17236221 -0.10902375 -0.13166238 -0.10061669 -0.14281072 -0.009494902
-0.11378418 -0.11563083 0.020746425 -0.04410373 0.13382766 -0.08843237 0.10674839 -0.12813
0.06952143 0.063664526 0.1269296 -0.12836535 0.009915772 -0.09683738 -0.086068034 -0.052577037
-0.072970785 0.0135935005 -0.009209845 -0.08818821 -0.06670658 -0.0049377754 -0.08054688 -0.03965212
0.06862831 0.016874751 0.054917105 0.048613176 -0.14450255 0.08125037 0.02384718 0.13694116
0.13877921 0.124403015 0.0539374 0.0990257 0.1108162 0.019126624 -0.007679649 0.10623569
0.10105928 -0.07719309 0.11722028 -0.12512234 -0.09271166 0.04035135 -0.032641325 0.058618847
-0.028012175 -0.10168442 0.07074785 0.035475325 -0.020913236 0.09772379 -0.14842911 0.008969018
0.044171754 -0.05525072 -0.07592121 -0.096306 0.12638612 -0.095710225 0.03528816 -0.11482235
0.098893926 0.08252904 -0.11252257 0.105609804 0.13532206 -0.029760323 -0.07220257 -0.06639073
0.012916032 -0.04801153 -0.12312583 0.039520163 -0.08876839 0.07563853 0.008493421 0.08861315
0.10285666 0.11537671 -0.10749727 -0.09412158 -0.041305266 0.007099995 -0.027089616 0.03615932
-0.05270348 0.14586905 -0.12255254 0.11172441 -0.05086419 -0.13508023 -0.094372965 0.09390678
-0.106500596 -0.077156566 0.04725181 -0.12987131 0.007100523 -0.07268452 0.0069881743 -0.119973406
00000000: 386c 07bd 9447 373c 6be4 aebc 91cb 353e
00000010: 8f95 e43d ec9f 923d 4156 673d b651 dc3b
00000020: b4fc 93bc e3c6 af3d c4bf 803d c1c5 a0bd
00000030: e73d c0bd b81e e8bd 77cf b6bd d030 123e
00000040: b6c8 a3bd 5a84 6fbd 7bb8 043d d31f ec3d
00000050: 2149 9c3c d867 c0bd 0323 873c 4593 cebd
00000060: bc91 1f3c fc83 edbd 9497 01bd ea1c b4bd
00000070: bb87 e9bd f1eb bc3d a8b9 d4bd a922 24bd
00000080: 9d5f c33d 583d a63d f733 18bd 8dda b53d
00000090: f676 27bd 96f1 febd 3c98 123c e1e0 84bd
000000a0: 1905 6f3d 362d 9f3c 5031 803d 80b4 a3bd
000000b0: ef86 f1bd 4c93 ecbd 2049 d83d cbb5 d03d
000000c0: b901 1c3e 33d7 ae3d fcdf cc3d e1a2 c8bd
000000d0: 6774 943d e6ff 3e3d 978a c3bd 25e2 a9bd
000000e0: 798e 8bbc b3be c4bd 2ad4 573d 74ef 583d
000000f0: 7ae7 e53c e4c6 6b3c ea99 e73d 2ad5 163d
00000100: 5433 0cbd cd7e eb3d ea4a 883d 31a2 30bd
00000110: 1a98 cd3d 333d e43d a973 5e3c bffb 833d
00000120: f570 d73d 49ec 183e 0111 8fbc f57e a43d
00000130: f06d 033e 90dc 953c 1244 013c 3511 6ebc
00000140: bba3 a3bd 5bb8 14bc 41fe fcbd 63ea 6bbd
00000150: a5c2 943d a41f 163e 336f a43d aabf 793d
00000160: 2239 73bd 4394 0abe 9b48 e03d 7baf 2f3d
00000170: a8e9 25bd 4d6b 003e ec03 983c 45b4 ce3d
00000180: 3270 2c3d 7a6a f33d cb7f 03be 4d06 0abe
00000190: 834f 1bbe 4682 403c 5ba1 f0bc 1b71 ab3c
000001a0: 699c b8bd 825e 6abd 0b95 82bd 6707 6fbd
000001b0: 1741 38bd 4d2d b3bc da8e 34bd e003 083d
000001c0: 9e37 19bd 62dd 92bc f8b6 183e 5554 a83d
000001d0: c473 acbd 5426 b83d f4ee 04be 1c09 07be
000001e0: 4a3b 583c 6383 903c 9699 49bd 0fee a23d
000001f0: dbd9 e53d bb78 98bd cf16 33be 20e6 c33d
00000200: 9ed5 19be b166 91bd ed71 2b3c a663 323c
00000210: c99f f2bd be6c e2bd 031b 213e 6581 cd3d
00000220: 0523 a33d 5487 fe3c 002d 09be 461d af3d
00000230: 83b8 e43d 7ab6 843d 8407 a13d ecf7 cebd
00000240: abef bebd fb7e 0bbe b87f 30be d847 dfbd
00000250: 81d2 06be 2010 cebd f93c 12be 8190 1bbc
00000260: ae07 e9bd dbcf ecbd 68f4 a93c 1da6 34bd
00000270: 1e0a 093e 081c b5bd e69e da3d 8334 03be
00000280: 4061 8e3d 8c62 823d d5f9 013e 3572 03be
00000290: c375 223c ad52 c6bd 7044 b0bd 055b 57bd
000002a0: b571 95bd 46b7 5e3c e4e4 16bc 059c b4bd
000002b0: 769d 88bd 10cd a1bb c3f5 a4bd 436a 22bd
000002c0: 008d 8c3d eb3c 8a3c c2f0 603d 9c1e 473d
000002d0: 7af8 13be 9866 a63d 295b c33c 4e3a 0c3e
000002e0: 231c 0e3e 02c7 fe3d 77ed 5c3d fccd ca3d
000002f0: 9bf3 e23d 70af 9c3c 91a5 fbbb 1992 d93d
00000300: 2bf8 ce3d 6917 9ebd 3011 f03d 1220 00be
00000310: 9cdf bdbd 7547 253d e9b2 05bd 511a 703d
00000320: ca79 e5bc ec3f d0bd 40e4 903d 934e 113d
00000330: 3c52 abbc 6923 c83d cdfd 17be caf2 123c
00000340: 71ed 343d 944e 62bd 947c 9bbd 153c c5bd
00000350: 5d6b 013e b903 c4bd 518a 103d fb27 ebbd
00000360: e688 ca3d fc04 a93d 3c72 e6bd f449 d83d
00000370: de91 0a3e eccb f3bc f1de 93bd ddf7 87bd
00000380: c49d 533c bda7 44bd 6529 fcbd e5df 213d
00000390: 34cc b5bd 60e8 9a3d fd27 0b3c d07a b53d
000003a0: 83a6 d23d a04a ec3d 8727 dcbd d1c2 c0bd
000003b0: b62f 29bd 13a7 e83b 0beb ddbc cc1b 143d
000003c0: 9bdf 57bd b25e 153e d3fc fabd c4cf e43d
000003d0: f856 50bd 7952 0abe 9d46 c1bd 3352 c03d
000003e0: fc1c dabd 4304 9ebd 1d8b 413d fcfc 04be
000003f0: 81ab e83b 9fdb 94bd 0efd e43b 9eb4 f5bd

fc1.bias f4 [128]
0.053205993 0.003214556 -0.011877341 0.058026113 0.08711214 -0.022777883 -0.036276404 0.01253061
0.05500218 0.071082726 0.07679152 0.012036963 -0.022330258 0.066803165 0.028225398 0.062650725
-0.02632566 0.01978784 0.06751446 0.07471895 0.049361203 0.06294874 0.029762974 0.110368915
0.11068979 0.05971194 0.043833412 0.0918763 0.048484366 0.07174091 0.069310695 0.02561532
0.0291121 0.06090635 0.031152878 0.02896513 0.015724247 0.06449165 0.056966722 0.075093545
0.012162833 0.058912314 0.0349064 0.046251778 0.028480064 0.08830252 0.07356766 0.0063788327
0.060030956 0.029365966 0.027588272 0.0517755 0.08388652 0.011610382 0.05433188 0.05703154
0.04061807 0.06735107 0.03607459 -0.01756997 0.05244038 -0.027104734 0.0958295 0.05121165
0.07442342 0.1036798 0.07455555 0.059834115 -0.014717958 0.108000085 0.06257382 0.007632198
0.005131413 0.05500015 0.09104732 0.03105143 0.051587734 0.061031476 0.020466648 0.052468292
0.11706903 0.030851027 0.026404098 0.07980926 0.08274769 0.048239928 0.03135069 0.0974148
0.06098828 0.019105544 0.07001129 0.02527883 0.08819023 0.04962948 0.030836582 0.040653277
0.030846916 0.09054773 0.095249034 0.08208818 0.021808848 -0.013239428 0.016644215 0.11745957
0.06578308 0.05882565 -0.024919339 0.021042792 0.041659195 0.031953946 -0.026950512 0.028893024
-0.0059481277 0.04739658 0.08929086 -0.0216905 0.057410434 0.03630641 0.035925906 0.087815955
0.09064687 0.09185083 -0.035524726 0.051430445 0.0018317979 -0.011270232 0.017044118 0.1025076
00000000: 87ee 593d 4dab 523b 2e99 42bc caac 6d3d
00000010: da67 b23d af98 babc 9196 14bd 304d 4d3c
00000020: f749 613d d293 913d df44 9d3d af36 453c
00000030: f2ed b6bc 19d0 883d f338 e73c 064f 803d
00000040: e9a8 d7bc 1c1a a23c 0545 8a3d 4006 993d
00000050: f92e 4a3d 45eb 803d 7bd1 f33c 1909 e23d
00000060: 54b1 e23d 8294 743d aa8a 333d a429 bc3d
00000070: 8b97 463d e6ec 923d c4f2 8d3d 38d7 d13c
00000080: 807c ee3c f078 793d 5234 ff3c 4848 ed3c
00000090: 23d0 803c 3314 843d f055 693d a5ca 993d
000000a0: 9e46 473c 0a4e 713d 03fa 0e3d 8172 3d3d
000000b0: 064f e93c f4d7 b43d a4aa 963d 8705 d13b
000000c0: 05e3 753d e590 f03c cd00 e23c 8c12 543d
000000d0: b2cc ab3d 7939 3e3c 1b8b 5e3d e799 693d
000000e0: 225f 263d 5cef 893d f3c2 133d e6ee 8fbc
000000f0: b9cb 563d bf0a debc 4242 c43d 4fc3 513d
00000100: 4e6b 983d 1356 d43d 95b0 983d 9e14 753d
00000110: 9723 71bc 262f dd3d b426 803d 8417 fa3b
00000120: 6a25 a83b d647 613d 0477 ba3d 925f fe3c
00000130: a94d 533d 24fc 793d aca9 a73c fee8 563d
00000140: e3c1 ef3d 4bbb fc3c 684d d83c 0a73 a33d
00000150: 9f77 a93d 3b97 453d 9569 003d 6981 c73d
00000160: d9ce 793d 3b83 9c3c 1462 8f3d 8d15 cf3c
00000170: 149d b43d 4848 4b3d 009d fc3c 0d84 263d
00000180: acb2 fc3c 1771 b93d ed11 c33d d91d a83d
00000190: 78a8 b23c 30ea 58bc 7359 883c a58e f03d
000001a0: 48b9 863d 2af3 703d a423 ccbc ef61 ac3c
000001b0: d5a2 2a3d 24e2 023d 52c7 dcbc 10b1 ec3c
000001c0: 83e8 c2bb eb22 423d 20de b63d 47b0 b1bc
000001d0: 3427 6b3d 08b6 143d 0b27 133d dad8 b33d
000001e0: 11a5 b93d 4a1c bc3d 6082 11bd bba8 523d
000001f0: f018 f03a c7a6 38bc 1ba0 8b3c 81ef d13d

fc2.weight f4 [6, 128]
0.19036776 -0.076180525 -0.057739925 -0.26021105 -0.23509027 -0.07053426 0.071001895 0.015655737
-0.21069571 -0.15337138 -0.25649932 0.050029047 -0.04824285 0.18881638 -0.13717411 -0.19355774
-0.045804847 -0.041041646 0.06754386 0.15294516 0.09017378 -0.3205123 -0.24455461 0.16159584
0.13963474 0.11914822 0.08776435 0.192674 -0.21086152 0.11377125 0.13026915 0.003203778
-0.14640181 -0.14310798 0.15495105 0.12681794 0.1517987 0.15373904 0.19743568 0.10674065
0.18082955 0.24196409 0.1461833 -0.1368032 0.16179559 -0.27679104 -0.26838255 -0.1448636
0.12061869 0.061333362 0.1857588 0.16818552 0.121184886 -0.043104358 -0.14576605 0.16004635
0.1350782 -0.12977864 -0.12998672 -0.014780338 0.10493936 0.031953976 -0.19325179 0.14053981
0.20014602 -0.20275308 -0.21834041 -0.17498077 -0.035417706 -0.21356392 -0.16012082 0.003717178
-0.102128394 0.16399314 0.14116912 -0.09754387 0.16113752 0.19172385 0.100985184 0.1584663
0.13671418 -0.13492519 0.03248979 -0.29506063 0.13912068 0.1838236 0.14176159 -0.19017556
0.19222157 -0.054368947 -0.153389 -0.07377655 0.19015618 -0.1771163 0.11701892 -0.090507045
0.1542525 0.114105076 0.15422246 0.1500352 -0.000107142645 -0.025842987 -0.10928207 -0.22954871
0.13727582 -0.12142348 0.024263406 -0.02998873 0.21981022 -0.03946961 0.07174776 0.094159484
-0.0622196 -0.05329077 0.16048938 -0.06714582 -0.21212988 0.1424977 -0.16639358 -0.20676066
0.21757674 -0.29461953 -0.06741115 0.21218319 -0.07109181 -0.057599865 0.09471284 -0.2843109
-0.0890086 0.009199326 -0.055217978 -0.12097814 0.14768283 -0.055253703 0.011675794 0.014755552
0.15683645 0.11614671 -0.1856761 0.09552526 -0.07436417 -0.07727476 0.15777248 -0.17296383
0.017338732 -0.037628986 0.097949564 -0.22407113 0.108390994 -0.36557525 0.10566978 -0.21390001
-0.18713541 0.12845923 -0.13856032 -0.14662245 -0.2585307 -0.068464346 -0.03802234 0.12094596
0.21713392 0.101067156 0.12363838 0.137339 0.0173169 -0.18121354 -0.21171665 -0.23606035
0.043382764 -0.22054939 0.105827026 0.1809968 0.028335147 0.08455794 -0.23513173 0.14811227
0.1508848 0.08471653 0.04323288 0.024914678 -0.22729553 -0.06326814 0.14717989 0.020059075
0.10954736 0.18582457 0.099095024 -0.062143452 0.14021532 -0.07967514 0.14191717 0.0017866751
-0.21269698 0.15947847 0.17209405 -0.19440491 -0.071558535 -0.21540354 0.16346568 0.0024911177
0.15708578 -0.15466483 -0.21752447 0.13440703 -0.09437083 -0.026802849 0.16284212 -0.10735706
-0.017192982 0.16635232 0.07997362 0.09523997 -0.10400078 0.014865974 0.14227742 0.14810248
-0.19801272 -0.04600505 0.10240306 -0.0078101577 -0.29597798 0.12048457 0.0825562 0.15023552
0.12496688 -0.1514672 -0.23392576 -0.16606359 0.11906477 -0.008529975 0.18966456 0.039062846
0.0872678 0.18105383 -0.06053381 0.010700039 -0.19882648 0.15373859 0.032695387 0.09252371
-0.07793742 0.11535964 -0.1577663 0.029033547 0.1908694 0.11496746 0.16242291 0.110212155
-0.30932793 0.05699122 -0.06665264 -0.18546778 0.026240995 -0.08001662 0.037141945 -0.25651985
00000000: c4ef 423e 8904 9cbd b380 6cbd 623a 85be
00000010: 81bb 70be 4474 90bd 7169 913d 7640 803c
00000020: 9ec0 57be 630d 1dbe e153 83be 42eb 4c3d
00000030: 4b9a 45bd 1559 413e 5f77 0cbe 0034 46be
00000040: dd9d 3bbd 491b 28bd 6f54 8a3d a89d 1c3e
00000050: 08ad b83d 301a a4be 866c 7abe 6179 253e
00000060: 69fc 0e3e fb03 f43d ccbd b33d 554c 453e
00000070: 15ec 57be e700 e93d 4765 053e 7af6 513b
00000080: 5bea 15be e68a 12be 7dab 1e3e 90dc 013e
00000090: 1e71 1b3e c46d 1d3e 942c 4a3e d89a da3d
000000a0: 622b 393e 6fc5 773e 13b1 153e 2316 0cbe
000000b0: bead 253e 8eb7 8dbe 7069 89be 2057 14be
000000c0: ef06 f73d b138 7b3d 8e37 3e3e d338 2c3e
000000d0: c82f f83d 328e 30bd b243 15be 31e3 233e
000000e0: f151 0a3e b1e4 04be 3d1b 05be 3b29 72bc
000000f0: 72ea d63d 2ce2 023d cce3 45be abe9 0f3e
00000100: 14f3 4c3e 819e 4fbe a194 5fbe 292e 33be
00000110: 2812 11bd 80b0 5abe b6f6 23be e69b 733b
00000120: b128 d1bd d1ed 273e a38e 103e 15c5 c7bd
00000130: 3c01 253e 4253 443e 52d1 ce3d fd44 223e
00000140: cdfe 0b3e d429 0abe 0414 053d 3012 97be
00000150: a775 0e3e 413c 3c3e f329 113e 62bd 42be
00000160: bbd5 443e f9b1 5ebd 0212 1dbe 2918 97bd
00000170: 4db8 423e fa5d 35be 9ea7 ef3d c25b b9bd
00000180: 5ef4 1d3e ecaf e93d 7eec 1d3e d4a2 193e
00000190: c5b1 e0b8 acb4 d3bc 47cf dfbd d10e 6bbe
000001a0: 0892 0c3e e0ac f8bd 0dc4 c63c edaa f5bc
000001b0: ee15 613e e3aa 21bd 7df0 923d b0d6 c03d
000001c0: fbd9 7ebd 6c47 5abd 5457 243e bf83 89bd
000001d0: 9338 59be ebea 113e 1463 2abe 11b9 53be
000001e0: 70cc 5e3e 5fd8 96be db0e 8abd 8d46 593e
000001f0: 9598 91bd d6ed 6bbd cef8 c13d 3391 91be
00000200: 244a b6bd c5b8 163c 3f2c 62bd 63c3 f7bd
00000210: 2b3a 173e b551 62bd d44b 3f3c 45c1 713c
00000220: bc99 203e 54de ed3d e021 3ebe bfa2 c33d
00000230: 3e4c 98bd 3b42 9ebd 1c8f 213e 6e1d 31be
00000240: f509 8e3c da20 1abd c899 c83d e772 65be
00000250: 19fc dd3d ae2c bbbe 6669 d83d 9b08 5bbe
00000260: 6da0 3fbe d18a 033e c2e2 0dbe 3224 16be
00000270: 235e 84be 0937 8cbd 50bd 1bbd 84b2 f73d
00000280: 5b58 5e3e 4cfc ce3d 1e36 fd3d 98a2 0c3e
00000290: 2cdc 8d3c 0b90 39be 40cc 58be ceb9 71be
000002a0: 20b2 313d b3d7 61be d7bb d83d 3a57 393e
000002b0: 1c1f e83c b72c ad3d 5fc6 70be beaa 173e
000002c0: 8c81 1a3e dc7f ad3d f614 313d de19 cc3c
000002d0: 29c0 68be ba92 81bd 53b6 163e ee52 a43c
000002e0: 5e5a e03d cc48 3e3e 55f2 ca3d 228a 7ebd
000002f0: 9b94 0f3e b82c a3bd bc52 113e de2e ea3a
00000300: 3dcd 59be 534e 233e 6c39 303e 1512 47be
00000310: 488d 92bd bf92 5cbe 8c63 273e 0542 233b
00000320: 18db 203e 7560 1ebe bcbe 5ebe ffa1 093e
00000330: 7e45 c1bd a691 dbbc 16c0 263e 05de dbbd
00000340: 4cd8 8cbc 4358 2a3e 36c9 a33d 2c0d c33d
00000350: 5cfe d4bd 6a90 733c 2cb1 113e 2da8 173e
00000360: d9c3 4abe cb6f 3cbd b2b8 d13d 5aec ffbb
00000370: 6d8a 97be 9dc0 f63d 3a13 a93d 57d7 193e
00000380: a3ee ff3d 381a 1bbe 3c8a 6fbe 930c 2abe
00000390: 3bd8 f33d 4fc1 0bbc 6d37 423e 5d00 203d
000003a0: 76b9 b23d 2d66 393e 4df2 77bd 374f 2f3c
000003b0: 2b99 4bbe a66d 1d3e 99eb 053d 127d bd3d
000003c0: a79d 9fbd ad41 ec3d 7d8d 21be c3d7 ed3c
000003d0: 4573 433e 0f74 eb3d 3152 263e e9b6 e13d
000003e0: 3b60 9ebe a06f 693d 2e81 88bd 44eb 3dbe
000003f0: 5bf7 d63c c1df a3bd 2722 183d 9256 83be

fc2.bias f4 [6]
-0.0049603204 0.048514232 -0.11182012 -0.06251932 -0.04002228 -0.09080216
00000000: 2f8a a2bb dcb6 463d f201 e5bd 210a 80bd
00000010: 67ee 23bd 7cf6 b9bd
